chatbot-deployment/data.pth (torch, 8490 bytes, 6 tensors)

l1.weight f4 [8, 116]
00000000: 2726 84be 9837 e1be a369 fb3b ab11 99be
00000010: 0db9 9fbe ce6d c3be e70f b33d ca6b 7fbe
00000020: 8614 483f a263 e3bd 2bb1 b1be 9717 483f
00000030: a749 25be 2d25 00bf 7230 213e 1dfd 33be
00000040: 283a b9bc cea3 b23e 79fc 81be 07c9 32be
00000050: 6dc8 da3e 8552 8ebe fc84 073f 2a7d 273f
00000060: 80ff ba3e 68e4 4dbc fc45 8dbe d975 98bd
00000070: f16b d5be bcff 36be f133 ec3e cada 5dbe
00000080: 0ee2 cebc 4f0a 463e 3ba0 f73e b23f e4be
00000090: 1e3e 873d 6675 d63e 525c 643e e835 3f3f
000000a0: 377c 3abe f62a efbe bbfe 463f f51a 243f
000000b0: df61 6e3e f589 353e ac57 0f3f 06cb 503e
000000c0: 1eb3 1dbe a6f0 86be d57d 1c3f a9e8 b33e
000000d0: b609 03bf 61f3 8bbe 13b0 1c3f 90f8 ad3d
000000e0: 4568 ccbd c3a3 a53e e568 453f d62f 9abe
000000f0: 9880 0e3e 9838 0dbe 5f8f dabd 6ff2 54be
00000100: a6e8 a2be dfd4 b43e fe44 b0be 79e0 dc3d
00000110: 6de6 893e a575 3bbe 42a1 f43e 9753 00be
00000120: e509 98be 266f 063f 3315 3e3e 8d05 b4be
00000130: 94b1 89be a06d 53be f67b d73e 4abf 04bd
00000140: 5a56 db3e ee3e c0be 56ed fbbe 123a 673f
00000150: 0856 2abe afc6 22bd 014a 01bd 2007 1dbf
00000160: 870c 943e 0d43 593e 50e7 09be 0827 1abe
00000170: 204c 3f3e 88a9 163c 0d85 88be 4706 c63e
00000180: ac2f acbe 0776 3abf 1138 8cbe d071 133e
00000190: 8435 82be cdf6 0ebe a254 e63c 32a6 df3e
000001a0: 1f79 083f b260 17be 99d6 e3bc a9d7 93bd
000001b0: 04d0 bebe 855f 423e 6864 62bd 9622 8abe
000001c0: 0143 1f3e 040a c3be c20b fc3d 8730 0f3d
000001d0: 5b5a b73e d7e3 a43e e4c0 633e df56 143e
000001e0: 98dd 0c3f 4ace 683e 45e2 d73e cf04 123f
000001f0: 77c2 21bf 5569 253e 908e a53e 1f3b 1cbf
00000200: a8d3 f13e 7110 15bf ae3e 2e3f 660f 2e3e
00000210: 8085 963e fdf9 31be 8779 203f c62e 6c3e
00000220: e95d 53be c6c7 283e 1bf3 1abe 6eef 323e
00000230: dbf6 743e aecf ae3e 81f7 6f3e 2ab6 4b3e
00000240: b0d7 cd3e f438 9e3e 420f 96be 32cf f63e
00000250: edff ab3e c63b 2f3e 9a8b c0be d7db 12bf
00000260: 9a84 653e d3ac 1f3e 4513 333e a222 15bf
00000270: 7e92 e63e 9ce9 913e 2520 15bf 7f1d 15bf
00000280: be62 f63e ab8c 173f d4ce 9a3e 999f 263e
00000290: 2915 2c3e e576 4f3e fabe d43e f603 7f3e
000002a0: cdcb a73e bfa8 453e 9129 a83d 401b e7be
000002b0: 86df 813e 5286 433e 61b2 363e 1ef0 a43e
000002c0: c2d3 4d3e a2c1 5e3e 7381 153f fcb6 9a3e
000002d0: 4dde 163e 5169 2e3e bc76 163f ed51 d13e
000002e0: 04d6 9b3e 027f ca3e d997 04bf c747 8e3e
000002f0: 599f 8b3e ef0e 133e 28ad b33e 59e2 bb3e
00000300: 69a7 f73e 0029 013f dba7 433e ffdd e03d
00000310: 49ea 1dbe a4b4 953e 597f a03e 75b9 25bf
00000320: 97cd 363e f0e8 ec3e bc8a b1be 8cea 3e3f
00000330: cf34 003e 59a6 a03e bf08 303e d160 6f3e
00000340: 445e 8f3d 2d30 363e aece 883e 8dab 5bbe
00000350: 6e74 ca3e d317 1f3f bc5a a83e 7665 d43e
00000360: eb7b 3b3e de29 7c3e 847a 5b3e 9bec 1f3e
00000370: 1988 5dbd 46b1 4b3e 7a7f 633e 3453 943e
00000380: 96d9 373e 85b6 bb3e 820b 113f 6ef0 053f
00000390: 1551 193e 3423 d53e 43ef d23e ca2c a33e
000003a0: c015 c33e 7af7 f13c 2425 a43e 070d d6bc
000003b0: 3a33 cbbe 2e1e e83d a6b5 03bd 8e0f cbbe
000003c0: 3134 ef3e 2cb5 413e e6b2 b9bd 0258 b63e
000003d0: 4ce2 a5be 4858 de3e ed49 d6bd e47b f0bd
000003e0: ee3c d5bd 1049 883e f75c d0be 3c51 84bd
000003f0: 3ca2 1f3f cf27 6f3d e8dc f9bd 1ec2 6abe
-0.25810358 -0.43987727 0.007672505 -0.29896292 -0.3119587 -0.38169712 0.087432675 -0.24943462
0.78156316 -0.11102988 -0.3470548 0.78160995 -0.16141377 -0.50056726 0.15741137 -0.17577024
-0.022610739 0.34890598 -0.25387934 -0.17459498 0.42731038 -0.27797332 0.52937293 0.6542536
0.36523056 -0.012566663 -0.27592456 -0.07444353 -0.41683915 -0.17870992 0.46133378 -0.21665493
-0.025254276 0.1933987 0.48364434 -0.44579846 0.06603645 0.41886443 0.22300842 0.7469163
-0.18211447 -0.46712464 0.7773244 0.64103633 0.23279522 0.17728408 0.5599315 0.20389947
-0.15400359 -0.26355475 0.61129504 0.35138443 -0.5118669 -0.2733412 0.6120617 0.08494675
-0.09980825 0.32351503 0.7711318 -0.3011462 0.13916242 -0.1379112 -0.10671877 -0.20795606
-0.31818122 0.35318658 -0.34427637 0.10785002 0.26933613 -0.18306597 0.4777928 -0.12531887
-0.2969505 0.5251335 0.18562774 -0.35160485 -0.26893294 -0.20647287 0.42086762 -0.03240899
0.4283932 -0.37548012 -0.4920451 0.90322983 -0.16634381 -0.03974026 -0.031564716 -0.61338997
0.28915808 0.21216984 -0.13467145 -0.15053952 0.18681383 0.009195693 -0.2666401 0.38676664
-0.3363012 -0.72836345 -0.27386525 0.14398885 -0.25431454 -0.13961335 0.028116528 0.43681484
0.53309816 -0.1478298 -0.02781229 -0.07218868 -0.37268078 0.1898175 -0.055271536 -0.26979512
0.15552904 -0.3809358 0.1230693 0.03495839 0.35811123 0.32205078 0.2224155 0.14486264
0.55025625 0.22734943 0.42164817 0.5703859 -0.63187355 0.16153462 0.3233533 -0.6102771
0.47231793 -0.5822821 0.6806439 0.16998062 0.29398727 -0.17380519 0.62685436 0.23064718
-0.20641293 0.16482458 -0.151318 0.17474148 0.23922293 0.34142822 0.23434259 0.19893709
0.4020362 0.30902827 -0.29308516 0.48204952 0.33593693 0.17112646 -0.37606508 -0.573667
0.22413865 0.15593271 0.1748782 -0.5825597 0.4503364 0.28498542 -0.58252174 -0.5824813
0.4812221 0.5919902 0.30235922 0.16271819 0.16804947 0.20260198 0.41551954 0.24903855
0.32772675 0.19302653 0.08211053 -0.45137978 0.25365847 0.19094208 0.17841484 0.32214445
0.2010031 0.21753553 0.5840065 0.3021773 0.14733239 0.17032363 0.58774924 0.40882817
0.30436718 0.39550024 -0.517942 0.27789137 0.2727001 0.14361165 0.35093045 0.36696127
0.4836991 0.50453186 0.19107 0.109798424 -0.15421404 0.2923938 0.3134716 -0.6473611
0.17851864 0.46271467 -0.34676158 0.7457664 0.12520145 0.31376913 0.17190836 0.23376776
0.070004016 0.17791815 0.26720184 -0.2145216 0.39541954 0.6214573 0.32881725 0.4148366
0.1830899 0.24625346 0.21433455 0.15617602 -0.05408487 0.19891843 0.22216597 0.2896973
0.17954096 0.3666269 0.56658185 0.5231999 0.14972337 0.4162842 0.41198167 0.3187011
0.3810253 0.029536951 0.32059586 -0.026129259 -0.3968752 0.11333881 -0.032155655 -0.39660305
0.46719506 0.18916768 -0.09067325 0.3561402 -0.32399213 0.43426728 -0.10463319 -0.1174238
-0.10412012 0.26618242 -0.40695927 -0.06460807 0.62356925 0.058387574 -0.12200338 -0.22925612

l1.bias f4 [8]
00000000: 8fca 363f a81f 153f 2778 a03f ee17 a23e
00000010: 5c69 703f f2e3 c03e f710 0d3f 17bf 943f
0.7140283 0.5825143 1.2536668 0.31658882 0.93910766 0.37673908 0.5510401 1.1620816

l2.weight f4 [8, 8]
00000000: bebb cc3e 6360 633f fc52 44bf ff12 4d3f
00000010: 37f5 673f c6f1 43bf fef8 24bf 7879 cb3e
00000020: 14f1 8abf 4c13 8d3f 0208 93be 9af1 213f
00000030: e457 f5be 14ee 393f 8e59 2d3f 8a95 f13d
00000040: be4e 353e 901b 993c b4c8 a1be d024 8cbe
00000050: 7487 94be c421 c1bd 4002 9abc a089 6bbc
00000060: 641a 383c b1b4 813e f9d2 823f aa5c 17bf
00000070: b1aa 7a3f 4055 60bf 689a 07bf bec4 e53f
00000080: 0d00 19bd 59eb 18be 78c0 3a3e 00e9 1f3d
00000090: 8fd6 a8be 95e8 9ebe 40b2 8d3e c0fe 6abd
000000a0: 382c 18bf 229e 8e3f 778a 52be 2232 893e
000000b0: 2832 0c3e c434 8e3f 6407 803f 758c b63e
000000c0: e7d9 ba3f 86ab 9abe 9203 943f 41db 903f
000000d0: 4618 ae3f 4414 2a3f b2bf 9a3f adea bcbf
000000e0: b15f 36be 3007 673f 815b 01bf cd2d 4d3f
000000f0: 6cc4 b33d 48b5 183f d2b3 87bf 7bfb 5d3e
0.39986986 0.8881895 -0.76689124 0.8010711 0.90608543 -0.7654079 -0.6444243 0.3974111
-1.0854821 1.1021514 -0.28717047 0.6325928 -0.47918618 0.72628903 0.67714775 0.117961004
0.17705819 0.0186899 -0.31598437 -0.27371836 -0.29009593 -0.094302684 -0.018799901 -0.014376074
0.011236761 0.2533317 1.0220634 -0.5912577 0.97916704 -0.8763008 -0.5296998 1.7950666
-0.037353564 -0.14933528 0.18237484 0.039040565 -0.32976195 -0.3103682 0.27675056 -0.057371855
-0.5944247 1.1142008 -0.20560633 0.2679606 0.13691008 1.1109853 1.0002255 0.35654035
1.4597749 -0.30208987 1.156359 1.1316911 1.3601158 0.6643717 1.2089751 -1.4759117
-0.17809941 0.9024534 -0.5053025 0.8014801 0.08777699 0.59651613 -1.0601752 0.21677963

l2.bias f4 [8]
00000000: 3679 cdbe a995 593e c47c 7ebe 3b27 853f
00000010: 101c 99be f12b c2be 131f e03d dbae a13e
-0.4013154 0.21248497 -0.24852282 1.0402597 -0.29904222 -0.3792415 0.10943427 0.31578717

l3.weight f4 [11, 8]
00000000: 7968 c0bf 3a8b b6bf 82cf 5abe 1867 d5bf
00000010: d018 643d f8f8 7bbe 5650 1d3f e207 6dbf
00000020: e075 fe3e fc6f 9ebf 78bb 093e 8f31 ba3d
00000030: 12e9 883e 55e4 5ebe fcd2 54bf 5848 8d3e
00000040: 09a7 86bf bd60 313f 9a05 2c3e 8fd8 9cbf
00000050: 4535 92be b912 f33e a7bd e6be 3497 123e
00000060: 578a 39bc 9d23 39bf 86d8 12be e699 60be
00000070: 64b9 08be ade6 803e e81f c7bd 7aad 95bf
00000080: de2e 97bf bde7 b6bf f43c 85be 326d 943f
00000090: 5d39 fbbd 3173 d4bf dc44 a5bf a909 4dbe
000000a0: 953e ccbf ffc9 18bf 352d 83be 4a25 543e
000000b0: e498 9f3e 7516 edbf 3f1d 063f 9834 1fbf
000000c0: f576 be3e 66e3 73bf 961a dabd ebd2 10bf
000000d0: a17c 9b3e ce40 89bf 15ad 0c3d e229 a13e
000000e0: 620d 803e 504b a93e c13c 97be b374 01bf
000000f0: d1e0 b1be 4620 523e c32c 8fbf c1eb 9f3e
00000100: 2930 17bf 2b24 9bbc 95b3 a53e 5e96 a0bf
00000110: de6f 2e3d 5319 583e 7c0d 4c3e eda2 ffbe
00000120: c1c2 eabf 12b8 bd3d e8a0 9d3d 867b bf3e
00000130: 6622 20bd df3c 1a3f b689 82bf e46d ae3e
00000140: 3e85 893e b4c9 093e 8094 a63b 6ffe b8bf
00000150: ff02 6b3e 221d 4dbe f3d2 94be 81dd 093f
-1.5031883 -1.4261239 -0.2136822 -1.6672087 0.055687726 -0.24606693 0.6145071 -0.92590153
0.49699306 -1.2377925 0.1345042 0.09091484 0.2674032 -0.2176679 -0.83134437 0.27594256
-1.0519725 0.69288236 0.16799012 -1.2253588 -0.28556266 0.47475222 -0.45066568 0.14315492
-0.011324487 -0.72319967 -0.1434041 -0.21933708 -0.13351971 0.25175992 -0.097228825 -1.1693566
-1.1811178 -1.4289471 -0.26023066 1.1595824 -0.122668006 -1.6597654 -1.2911639 -0.20023216
-1.5956599 -0.5968322 -0.25620428 0.2071735 0.31171334 -1.8522478 0.52388376 -0.62189627
0.37200132 -0.9526886 -0.10649602 -0.56571835 0.30368522 -1.0722902 0.03434475 0.31477267
0.2501021 0.3306527 -0.2953854 -0.50568694 -0.34741834 0.20520124 -1.1185535 0.31234553
-0.5905786 -0.018938145 0.32363573 -1.2545888 0.042587154 0.2110341 0.19927019 -0.4992899
-1.8340684 0.09263624 0.07696706 0.37398928 -0.039095305 0.6024913 -1.0198276 0.34068215
0.26859468 0.1345585 0.0050836205 -1.4452647 0.22950362 -0.20030645 -0.2906719 0.53853613

l3.bias f4 [11]
00000000: e241 403d 0995 11be 0541 a73e 851a 7fbe
00000010: d248 4c3f 8e87 f73e f15f 19be 03cb 88bc
00000020: 4be2 09be 20fe d23d ba7d b5be
0.04693783 -0.14217009 0.32666793 -0.2491246 0.79798615 0.48345608 -0.14978005 -0.016698366
-0.1346523 0.10302377 -0.35447484
